modelNNSmall/NN.tflite (tflite, 20008 bytes, 10 tensors)

arith.constant12 f4 [125]
000000 94 55 0d 3f 6b 49 c9 3b f5 4f 56 bf 1e 30 98 3f
       0.55208707 0.0061427853 -0.83715755 1.1889684
000010 57 ef 70 3e 84 53 f4 3e d8 12 97 be 10 04 65 3e
       0.23528801 0.47719967 -0.29506564 0.22364831
000020 d5 6b 72 3f 0f fe 2a bd 98 b4 47 3f a4 a8 d8 be
       0.9469579 -0.041746195 0.7800994 -0.42316163
000030 fe 7b 42 3d f2 93 d6 bc f5 d5 37 3f 64 53 66 bf
       0.04748153 -0.026193593 0.7181085 -0.89970994
000040 84 b3 15 bf d3 74 1b 3e c9 e6 35 3f 16 9c 5d 3f
       -0.58477044 0.15181284 0.71055275 0.86566293
000050 fc 77 b6 3e 6e 13 58 bf 60 ef 59 bf 35 74 6a bd
       0.35638416 -0.8440465 -0.8513088 -0.05723973
000060 c5 15 19 3e 0a 53 7c bf e1 2e 57 be 8d 3a 09 be
       0.1494971 -0.9856421 -0.21013977 -0.13401242
000070 71 13 04 bf f8 24 8f bc 7c fd 2d 3e 82 47 21 3f
       -0.51592165 -0.017473683 0.16991228 0.6299974
000080 21 4e 60 bf 4f 64 ec bd 74 eb 7d 3f 47 7a 4d bf
       -0.87619215 -0.1154257 0.991874 -0.80264705
000090 d2 44 09 bf 17 0e d5 3e a2 0d 2d 3f 63 d4 20 bf
       -0.53620636 0.41612312 0.6759893 -0.62824076
0000a0 65 e7 e7 be 56 44 60 3e 59 a3 93 bf 0d be 20 3f
       -0.45293728 0.21901068 -1.1534225 0.62789994
0000b0 77 83 9e 3f 50 8b 8e 3d 0c e1 50 bf 3e b7 fa 3c
       1.238387 0.069601655 -0.81593394 0.030604955
0000c0 f1 e9 c9 3e a3 ea 8f be 0e 65 b2 3c 67 6c 9b bf
       0.39436296 -0.281087 0.021776702 -1.2142457
0000d0 6b 4f a5 bd eb cd 44 3e be 3c 6b be 7a 53 5d bd
       -0.080717884 0.19219176 -0.2297239 -0.054034688
0000e0 e8 5d 59 3d e4 51 d5 be 58 bd 22 bf 11 57 b5 be
       0.05306807 -0.4166404 -0.63570166 -0.3541799
0000f0 a0 ad 89 3d 07 4a 77 be d3 f8 97 be c1 f5 7a be
       0.067225695 -0.24149333 -0.29682025 -0.2450781
000100 e6 1e b8 be 4b a3 82 3e 9e c6 92 be 22 e6 c9 be
       -0.35961074 0.25515208 -0.28667158 -0.3943339
000110 f1 ed f2 3e 20 c7 04 bf 9d d6 77 bd 41 6b 63 3f
       0.4744716 -0.5186634 -0.060507406 0.8883553
000120 ea 3e a3 3e 4d b6 0b 3f a9 5f ee 3e 2b 34 05 3f
       0.31883937 0.54575044 0.46557358 0.52032727
000130 b3 8c d3 be 36 26 19 bf 97 78 00 3f 01 e7 6e bf
       -0.41318282 -0.5982393 0.50184005 -0.93321234
000140 65 57 86 3f 29 38 59 bf 00 05 74 be 0a 68 36 3d
       1.0495421 -0.8485132 -0.23830032 0.044532813
000150 60 0e 22 bf 02 b7 4e be f7 94 3a 3d 06 0b 2e 3e
       -0.63303185 -0.20187 0.04555222 0.16996393
000160 64 f2 94 3e 6a 32 c0 3e 09 38 17 3c 35 4a 54 bf
       0.2909118 0.37538463 0.009229668 -0.8292573
000170 40 a8 7a be b5 c4 c8 be cf 7d 0c 3f 18 02 b8 3e
       -0.24478245 -0.39212576 0.5487947 0.35939097
000180 0e be 35 bf c3 f4 16 bf 64 50 25 bd 49 36 f4 bd
       -0.70993125 -0.58967227 -0.04035987 -0.119244166
000190 91 98 84 bf df 12 7b bf 69 ca 29 bf c7 85 c1 be
       -1.035906 -0.9807567 -0.6632448 -0.37797377
0001a0 a3 ca 40 3e e9 82 e9 be f6 b6 9d 3d 18 36 61 3f
       0.188273 -0.4560769 0.07700913 0.87973166
0001b0 a6 37 80 be 2a 45 16 3f f9 14 ca be 8f f9 4b 3e
       -0.25042456 0.58699286 -0.39469126 0.19919418
0001c0 1b 1e b1 3b 81 b0 c4 bc b0 10 0d 3f 76 96 6e 3f
       0.0054052 -0.024009945 0.5510359 0.93198335
0001d0 e1 56 e0 3d 26 b8 a8 3c d5 d6 bd 3e 13 32 90 3e
       0.10954071 0.020595621 0.37077966 0.28163204
0001e0 2c 7a ab bf da 8d 55 be 56 ce 22 3d fc 03 4f 3f
       -1.3396659 -0.20854893 0.03974756 0.80865455
0001f0 b7 2e b4 3e
       0.3519189

arith.constant13 f4 [45]
000000 79 51 f5 be 15 72 cb be 2e a9 e1 bd 36 6d 89 3d
       -0.4791372 -0.39735475 -0.110185966 0.067102835
000010 81 78 00 3e 84 87 f5 be 5d 99 c5 be 19 aa eb be
       0.12545969 -0.47954953 -0.3859357 -0.46028212
000020 54 d6 9d be 3f 90 d2 be d1 b6 bf be 2c e1 a8 be
       -0.30827582 -0.41125676 -0.37444165 -0.32984293
000030 2e 7f c4 be b9 cf 21 bf 99 af ca be a7 92 27 bf
       -0.3837828 -0.63207585 -0.39587095 -0.6545815
000040 48 0e 68 be 82 c8 b9 be c9 e2 ba 3d ad eb 17 be
       -0.22661698 -0.36285788 0.09125287 -0.14835997
000050 68 a2 1b bf d5 d1 85 3e ca 38 f1 be fe 4a 18 bf
       -0.6079469 0.26136652 -0.4711364 -0.5948943
000060 93 e0 b2 be 74 08 11 bf 07 fa a2 be aa f6 99 3c
       -0.34936962 -0.56653523 -0.3183138 0.018794376
000070 3a b7 a6 be 46 1f d4 be 4f d4 9c be e9 59 e2 be
       -0.32561666 -0.4143011 -0.3063073 -0.4420922
000080 4f de bc be ef 68 69 3c d1 a2 89 bd cc d3 39 bf
       -0.36888358 0.0142462095 -0.06720508 -0.725888
000090 dc cd 93 be c4 ef 91 be 65 86 02 be 12 55 51 bf
       -0.28867996 -0.2850324 -0.1274658 -0.8177043
0000a0 8b 76 9c be 94 f7 d0 be 19 29 38 be 31 7e d2 be
       -0.3055919 -0.40813887 -0.17984428 -0.411119
0000b0 3c 0b 00 bf
       -0.5001714

arith.constant14 f4 [12]
000000 ae 23 c0 be d3 bd 28 3f 47 53 29 3f fb 62 3f bf
       -0.3752722 0.6591465 0.66142696 -0.7476041
000010 47 a2 d1 bd 57 4f b0 3e 5f 54 90 3e 3f 7d af 3e
       -0.1023603 0.34435531 0.2818937 0.34275243
000020 29 92 1e 3f da 58 e7 bb df d3 bc 3e 9c d9 5a 3e
       0.6194177 -0.0070601525 0.36880395 0.21372074

arith.constant15 f4 [7]
000000 25 85 3c bd 0d 42 8c 3e 08 a2 60 bf a5 8f f3 be
       -0.046025414 0.27394143 -0.8774724 -0.4757053
000010 b1 01 99 3e b0 b6 a4 3f 50 31 9f bf
       0.29884103 1.2868252 -1.2436924

arith.constant16 f4 [10]
000000 eb 8d 0b 3f c0 f1 c2 3d 83 cf 54 3e 1e 33 a8 3e
       0.54513425 0.095187664 0.20782284 0.328515
000010 c9 5f 44 3f 0f 3c da 3e 37 b6 c8 be 1a 06 b3 bf
       0.76708657 0.42623946 -0.3920152 -1.3986237
000020 f2 96 fc 3d dc e2 e7 3d
       0.12333478 0.11322567

arith.constant17 f4 [10, 2, 2, 5]
000000 1e d2 17 be c9 46 b2 3d 9f c8 63 bf 5a 15 4f 3e
       -0.14826247 0.087049074 -0.88978 0.20222989
000010 90 61 0c bf b8 5b 64 bd a2 f2 a0 3d 75 19 a7 3e
       -0.5483637 -0.055751532 0.078587785 0.3263661
000020 f1 7a 42 bf fe 13 cb 3c c9 38 51 3e d4 78 b0 3e
       -0.75968844 0.024789806 0.20431818 0.34467185
000030 13 63 7f bf 3d 77 a9 3e 50 7f 6b be 8e 86 82 be
       -0.9976055 0.33098784 -0.22997785 -0.25493282
000040 21 79 50 be 07 48 b2 be 55 9d e4 3e 17 aa ab bf
       -0.20358707 -0.34820578 0.44651285 -1.3411282
000050 40 d5 c4 be 7e 8a 76 bd 6a 32 95 3e a6 a4 9c be
       -0.38443947 -0.06019067 0.29140025 -0.30594367
000060 2d b7 1b 3e 3b 8e 95 be 3a b1 dd be fa 33 9a be
       0.15206595 -0.29210076 -0.43299276 -0.3011778
000070 de 9f 1b 3c 7b 44 7b be 78 db 0e bf 87 bd a0 3e
       0.0094985645 -0.24537842 -0.5580363 0.31394598
000080 eb cf 28 be fa af b5 3e 82 2b 51 3e 0a 3b 40 bf
       -0.16485564 0.35485822 0.20426753 -0.75090086
000090 a0 40 bb be 15 73 b3 bf 73 61 4e 3e 0e 6a 05 3f
       -0.36572742 -1.4019495 0.20154361 0.5211495
0000a0 ea 48 cd bd d1 07 77 be f1 b4 b2 3c 62 40 d9 3d
       -0.10023673 -0.24124075 0.021814795 0.10607983
0000b0 cb a8 2a 3d be 42 a4 bd 61 91 80 3e fe 44 9f be
       0.04166488 -0.080205426 0.25110915 -0.31107324
0000c0 c8 a3 ff bc 01 dc a0 be c7 86 aa 3e 0b e5 74 be
       -0.031206027 -0.3141785 0.33305952 -0.23915498
0000d0 cb b4 95 bd d1 96 4e 3e d5 18 a3 3d 4b 96 b6 3e
       -0.07309874 0.2017472 0.07963721 0.3566154
0000e0 ca f4 34 3e 93 e8 77 bf 2a dd 61 bf 9a 7d 1a bf
       0.17671505 -0.96839255 -0.88228095 -0.603479
0000f0 6f df e3 3d ed bb 18 be b3 3b 33 be 97 42 f5 3d
       0.11126601 -0.14915438 -0.17503242 0.11975592
000100 71 07 ab be db 28 3f 3d fb 1c 94 bd 8a 6e f7 3d
       -0.33404115 0.046669822 -0.0723209 0.120816305
000110 54 f0 00 c0 2a 5e b5 3d 70 a4 b8 3d 75 b7 cd 3c
       -2.0146685 0.08855851 0.09015739 0.025111893
000120 77 22 85 3e 3a 98 74 3e 9a 51 12 bf 33 6c 00 3f
       0.26002857 0.23886195 -0.57155764 0.501651
000130 fa 24 1a be 3e 22 02 bf 4d 05 85 bf 22 ee 92 3c
       -0.15053168 -0.508335 -1.0392243 0.017935816
000140 e9 1b e2 bd db d1 27 be 5a b9 33 bd 9c e9 b2 bd
       -0.1104048 -0.16388647 -0.043877937 -0.08735964
000150 f3 46 31 bc 12 08 93 3e 35 2c 2f bf b3 69 09 be
       -0.010820138 0.28717095 -0.6842683 -0.13419227
000160 11 ce 22 3c c4 09 97 bf 15 20 bb 3e d9 8d 98 3e
       0.009936825 -1.1799855 0.36547914 0.2979572
000170 ad ce 0f be 7f e8 b8 3d e6 7f 5e 3d ea bd 72 be
       -0.14043684 0.0902872 0.054321192 -0.23705259
000180 10 a7 db be e0 3f 98 3e da 8e bd 3e 30 fa 75 bf
       -0.42900896 0.29736233 0.3702305 -0.9608488
000190 09 2e 36 3e 6d 57 a9 be bf 46 81 3e 15 9e 4a 3e
       0.17790999 -0.33074513 0.25249287 0.19786866
0001a0 92 f2 a3 3d fd 81 69 bf 87 11 83 bf 5c 32 1d be
       0.08005251 -0.9121397 -1.0239724 -0.15351242
0001b0 7a aa 93 be 7b 11 3b 3d f7 5e 9c 3e 0e b5 45 3e
       -0.28841 0.045670968 0.30541202 0.19307348
0001c0 25 c0 a5 be a1 3c 63 bc 60 a1 3b bf 93 38 3f bf
       -0.32373157 -0.0138694355 -0.73293114 -0.746957
0001d0 a4 3c 64 bf d4 20 0e 3e 50 19 d3 3e 6d bd b9 3e
       -0.8915503 0.1387971 0.4123025 0.36277333
0001e0 6f f2 f9 3d 75 05 80 be 75 e0 24 3d 39 5f bc be
       0.12204444 -0.25004163 0.04025312 -0.367914
0001f0 65 5e 95 3e 15 fc 68 be 03 88 e2 bd 0f 9a 0f bf
       0.2917358 -0.22752412 -0.110610984 -0.5609445
000200 be 88 f5 be 91 30 0a 3e 37 a4 ae 3e 6a c1 8a 3e
       -0.47955889 0.13495089 0.3410966 0.27100688
000210 85 83 e0 3e 7e a2 a0 3e 1b f2 50 3e 58 1f 02 c0
       0.4385034 0.31373972 0.20404856 -2.033163
000220 55 6b 16 3e ff 99 0f be 20 29 c8 be c6 a2 eb be
       0.14689381 -0.14023589 -0.39093876 -0.46022624
000230 26 6b b7 bd f8 55 75 3c 8a 85 f0 be 06 11 9e be
       -0.08955984 0.01497411 -0.46976882 -0.30872363
000240 d0 0e 42 bc 69 8d 15 be 28 5d b6 bd 35 e5 5f 3e
       -0.011844352 -0.14604725 -0.08904487 0.2186478
000250 3c 7b 27 bf 62 bf 32 3c 16 91 66 be 62 9b 89 3d
       -0.65422416 0.010909887 -0.22516283 0.0671909
000260 c7 9d 81 3e 67 de af 3e 18 64 1c be 3f 4e 6b bd
       0.25315687 0.34349367 -0.15272558 -0.05744767
000270 00 2e 60 3e 79 19 4b bd b1 ad 89 3e 5e d2 fc 3e
       0.21892548 -0.04958484 0.2689033 0.49379247
000280 a9 36 1e be d7 5b b6 3e 34 f0 bb bf ac 69 01 be
       -0.15450539 0.35616943 -1.4682679 -0.12637967
000290 2a 81 ab 3d 7b c5 a4 3e e2 64 cf bd 22 49 47 bf
       0.083742455 0.32181916 -0.10126664 -0.77845967
0002a0 a8 f4 4d bf 76 4a 17 bf b4 49 3f 3d 44 ac 5c 3e
       -0.8045144 -0.59097993 0.04670115 0.21550089
0002b0 10 a8 03 bf 06 82 34 3e 8b a5 4c 3d 87 d9 d6 3e
       -0.5142832 0.17627725 0.04996256 0.41962835
0002c0 f6 2e be bf 67 d4 b2 3c fe c9 c5 3d e2 90 be 3e
       -1.4858081 0.021829797 0.096576676 0.37219912
0002d0 b4 ce 7a 3e f4 cc b1 be 66 20 ad 3d af e8 aa 3d
       0.24492913 -0.3472668 0.08453445 0.08345162
0002e0 4b be d8 be 65 a2 9d 3e d5 03 ca bf fc 06 3c be
       -0.42332682 0.3078796 -1.578242 -0.1836204
0002f0 0f fc d2 be 97 4c a3 3e f6 94 34 bf 9c 99 8a 3e
       -0.4120793 0.3189437 -0.70539796 0.2707032
000300 37 a3 c7 3e 42 66 01 bf 6e 8b 65 3e 22 87 97 3d
       0.3899171 -0.5054666 0.2241647 0.073988214
000310 e0 06 9d bf 6f 65 23 bd 24 e7 8e 3e 72 12 63 bd
       -1.2267723 -0.039891656 0.2791072 -0.055437513

arith.constant18 f4 [7, 12]
000000 44 8f 63 be ae 47 88 3d 4a c3 07 3f b3 5b 45 bf
       -0.2222262 0.06654297 0.5303236 -0.77093047
000010 73 3c e0 3d f2 a0 f6 be 2c aa 89 3e 1f 28 86 3d
       0.1094903 -0.48169667 0.26887643 0.06550621
000020 20 de 88 3e 3c 23 f8 be b6 58 0f 3e 55 df 3f 3e
       0.26731968 -0.48464382 0.13998684 0.18737538
000030 25 ba 3d 3e bd cb 14 be d3 28 12 3f 9d b2 75 3d
       0.1852804 -0.14530845 0.5709354 0.059984792
000040 e0 54 39 3e b6 09 4b be 74 b1 87 3e 41 04 d2 3e
       0.18098783 -0.19827923 0.26502573 0.4101887
000050 05 2b 88 3e 81 9a c9 bd a7 5c 3f be 33 27 29 be
       0.2659532 -0.098439224 -0.18687688 -0.1651886
000060 5a 0c 61 3e 88 e1 39 3e 0c c8 fb be e0 8f 53 bd
       0.21977368 0.1815244 -0.4917606 -0.05165088
000070 3c dc 1b 3e 94 fd 7c 3d 1e c9 0d be 07 a7 7d 3e
       0.15220731 0.06176527 -0.13846251 0.24770747
000080 0c 3d 16 be 71 50 ef 3e 7f 8c c5 bf b1 36 c6 3d
       -0.14671725 0.4674106 -1.5433501 0.096784
000090 61 b5 cc 3d 3f 84 12 bf 11 04 9a bf 6e de 91 bd
       0.09995533 -0.5723304 -1.2032491 -0.07122503
0000a0 ba 40 1a be a8 13 f6 be 53 08 84 bf ff a0 8e 3e
       -0.15063754 -0.48061872 -1.031504 0.27857205
0000b0 20 8c b7 be f9 28 2a 3f 08 de 9a c0 09 3f 2e bf
       -0.35849094 0.6646877 -4.8396034 -0.68064934
0000c0 92 9e 49 3c 83 ca ef bd 11 fe b4 3e e5 e4 90 bf
       0.0123058725 -0.11708548 0.35350087 -1.1319853
0000d0 22 39 21 bf b0 88 e2 3d 0f 93 94 3e 2e 0e 16 bd
       -0.629778 0.11061227 0.29018447 -0.036634617
0000e0 16 dc 06 3e 7e 9a 83 3d 30 fc 67 bf c5 07 05 3e
       0.13169894 0.064259514 -0.9061918 0.12991245
0000f0 86 4c 9f be 34 8c 83 be 74 fe f8 be f5 74 2c bf
       -0.3111307 -0.25692904 -0.48631632 -0.6736596
000100 f1 18 8f 3e 13 44 e4 bd a4 09 75 bf 33 78 03 3f
       0.27948716 -0.111457966 -0.95717835 0.51355284
000110 6c 75 b9 3e a2 6e 73 3e cd 1f 27 bf 36 7a ed bd
       0.36222398 0.23772672 -0.652829 -0.115955755
000120 32 69 14 3e 95 eb 05 bf 26 f7 49 3e 05 01 1f c1
       0.14493254 -0.52312595 0.19723186 -9.937749
000130 48 8c 81 3e ef 9b 1a bf 70 fa c2 3e 4f 1f bb bd
       0.2530234 -0.60394186 0.38081694 -0.09136831
000140 ab 9f 82 be 7b 52 9e be 3e af ea 3e 0e a8 94 be
       -0.25512442 -0.30922303 0.45836824 -0.29034466

tfl.pseudo_qconst i1 [12, 174] scale=0.026293315 zero_point=0
000000 f0 12 25 03 d7 f4 1f 05 ec 1d dc f4 fd 15 13 bd
       -0.42069304 0.47327965 0.97285265 0.078879945 -1.0780259 -0.31551978 0.81509274 0.13146657 -0.52586627 0.7625061 -0.9465593 -0.31551978 -0.078879945 0.5521596 0.499573 -1.7616521
000010 f5 fb f7 07 f0 08 00 f5 02 13 15 0f e6 06 f7 14
       -0.28922647 -0.13146657 -0.23663983 0.18405321 -0.42069304 0.21034652 0.0 -0.28922647 0.05258663 0.499573 0.5521596 0.39439973 -0.6836262 0.15775989 -0.23663983 0.52586627
000020 ef f6 1c 12 f0 f7 ff 2b 12 0c e4 f2 f8 09 fc 1e
       -0.44698635 -0.26293314 0.73621285 0.47327965 -0.42069304 -0.23663983 -0.026293315 1.1306125 0.47327965 0.31551978 -0.73621285 -0.36810642 -0.21034652 0.23663983 -0.10517326 0.78879946
000030 f4 12 15 f1 f2 eb 0e ff e8 07 0a fb 10 06 05 d4
       -0.31551978 0.47327965 0.5521596 -0.39439973 -0.36810642 -0.5521596 0.36810642 -0.026293315 -0.63103956 0.18405321 0.26293314 -0.13146657 0.42069304 0.15775989 0.13146657 -1.1569059
000040 fc 20 f9 e3 f2 e3 05 02 24 f4 f5 0f fe fc f4 f8
       -0.10517326 0.8413861 -0.18405321 -0.7625061 -0.36810642 -0.7625061 0.13146657 0.05258663 0.9465593 -0.31551978 -0.28922647 0.39439973 -0.05258663 -0.10517326 -0.31551978 -0.21034652
000050 08 16 02 de 0b ee f3 01 10 05 f9 fd f7 fc 02 f1
       0.21034652 0.57845294 0.05258663 -0.8939727 0.28922647 -0.47327965 -0.3418131 0.026293315 0.42069304 0.13146657 -0.18405321 -0.078879945 -0.23663983 -0.10517326 0.05258663 -0.39439973
000060 f5 13 fc 13 f4 0a f8 05 ed 20 fa f4 f0 f8 13 0d
       -0.28922647 0.499573 -0.10517326 0.499573 -0.31551978 0.26293314 -0.21034652 0.13146657 -0.499573 0.8413861 -0.15775989 -0.31551978 -0.42069304 -0.21034652 0.499573 0.3418131
000070 0b f2 0e f7 f4 ff fa 05 d8 f1 dd 06 e7 1c f3 16
       0.28922647 -0.36810642 0.36810642 -0.23663983 -0.31551978 -0.026293315 -0.15775989 0.13146657 -1.0517325 -0.39439973 -0.92026603 0.15775989 -0.6573329 0.73621285 -0.3418131 0.57845294
000080 fb ca 1e 09 fc 17 0a f3 16 0e 0d 07 0e 0c fc 12
       -0.13146657 -1.419839 0.78879946 0.23663983 -0.10517326 0.6047462 0.26293314 -0.3418131 0.57845294 0.36810642 0.3418131 0.18405321 0.36810642 0.31551978 -0.10517326 0.47327965
000090 fc eb ae e7 14 00 18 ef 11 00 fd 15 f8 f8 05 ec
       -0.10517326 -0.5521596 -2.1560519 -0.6573329 0.52586627 0.0 0.63103956 -0.44698635 0.44698635 0.0 -0.078879945 0.5521596 -0.21034652 -0.21034652 0.13146657 -0.52586627
0000a0 f8 05 1e 33 2c e6 fb 2e 02 ea f4 04 1a f5 dd fe
       -0.21034652 0.13146657 0.78879946 1.3409591 1.1569059 -0.6836262 -0.13146657 1.2094924 0.05258663 -0.57845294 -0.31551978 0.10517326 0.6836262 -0.28922647 -0.92026603 -0.05258663
0000b0 fb 13 ef 18 f2 0d 1b e9 fe f7 f2 ff e7 fd cc f5
       -0.13146657 0.499573 -0.44698635 0.63103956 -0.36810642 0.3418131 0.7099195 -0.6047462 -0.05258663 -0.23663983 -0.36810642 -0.026293315 -0.6573329 -0.078879945 -1.3672523 -0.28922647
0000c0 01 f2 fb 07 1b 07 15 0a 28 fd 07 1d 09 e7 ea fe
       0.026293315 -0.36810642 -0.13146657 0.18405321 0.7099195 0.18405321 0.5521596 0.26293314 1.0517325 -0.078879945 0.18405321 0.7625061 0.23663983 -0.6573329 -0.57845294 -0.05258663
0000d0 fd 04 0b 1d ee 05 d7 06 0a 00 07 e6 21 de f2 0a
       -0.078879945 0.10517326 0.28922647 0.7625061 -0.47327965 0.13146657 -1.0780259 0.15775989 0.26293314 0.0 0.18405321 -0.6836262 0.8676794 -0.8939727 -0.36810642 0.26293314
0000e0 01 0b 0d 10 14 ed dd f1 16 ef f4 ff 05 e1 ff 10
       0.026293315 0.28922647 0.3418131 0.42069304 0.52586627 -0.499573 -0.92026603 -0.39439973 0.57845294 -0.44698635 -0.31551978 -0.026293315 0.13146657 -0.81509274 -0.026293315 0.42069304
0000f0 02 03 f8 0f 01 1e 1b 08 05 e2 da 08 fa f4 0e f3
       0.05258663 0.078879945 -0.21034652 0.39439973 0.026293315 0.78879946 0.7099195 0.21034652 0.13146657 -0.78879946 -0.999146 0.21034652 -0.15775989 -0.31551978 0.36810642 -0.3418131

tfl.pseudo_qconst1 i1 [125, 45] scale=0.022246815 zero_point=0
000000 f6 01 ec 1e 03 16 00 e2 1b 03 e9 0e f6 0f 20 ee
       -0.22246815 0.022246815 -0.4449363 0.6674045 0.066740446 0.48942995 0.0 -0.6674045 0.600664 0.066740446 -0.5116767 0.31145543 -0.22246815 0.33370224 0.7118981 -0.40044266
000010 bb f5 d9 17 fd 37 e5 d8 0e e8 f3 21 fc 10 f9 0b
       -1.5350302 -0.24471498 -0.8676258 0.5116767 -0.066740446 1.2235749 -0.600664 -0.8898726 0.31145543 -0.53392357 -0.2892086 0.7341449 -0.08898726 0.35594904 -0.15572771 0.24471498
000020 0e 19 e9 05 01 f2 e8 ec fb 07 09 18 e4 f4 06 00
       0.31145543 0.5561704 -0.5116767 0.11123408 0.022246815 -0.31145543 -0.53392357 -0.4449363 -0.11123408 0.15572771 0.20022133 0.53392357 -0.62291086 -0.26696178 0.13348089 0.0
000030 1e f4 9f e9 06 b8 31 20 f8 0d 02 18 e3 09 17 07
       0.6674045 -0.26696178 -2.157941 -0.5116767 0.13348089 -1.6017706 1.090094 0.7118981 -0.17797452 0.2892086 0.04449363 0.53392357 -0.64515764 0.20022133 0.5116767 0.15572771
000040 f3 c4 f1 01 e5 f4 fb ce 04 fb ee ef 04 b6 f0 f9
       -0.2892086 -1.334809 -0.33370224 0.022246815 -0.600664 -0.26696178 -0.11123408 -1.1123408 0.08898726 -0.11123408 -0.40044266 -0.37819585 0.08898726 -1.6462643 -0.35594904 -0.15572771
000050 1d dc e4 1f 03 00 eb ee e6 e2 0b e7 08 f9 b7 e0
       0.64515764 -0.8008853 -0.62291086 0.68965125 0.066740446 0.0 -0.4671831 -0.40044266 -0.5784172 -0.6674045 0.24471498 -0.5561704 0.17797452 -0.15572771 -1.6240175 -0.7118981
000060 f3 0d 02 09 f0 0a da 0a e1 01 f8 1f 20 1a 07 da
       -0.2892086 0.2892086 0.04449363 0.20022133 -0.35594904 0.22246815 -0.845379 0.22246815 -0.68965125 0.022246815 -0.17797452 0.68965125 0.7118981 0.5784172 0.15572771 -0.845379
000070 ff ee e5 e8 08 0c ec e7 c0 f6 0b ce f2 21 eb 25
       -0.022246815 -0.40044266 -0.600664 -0.53392357 0.17797452 0.26696178 -0.4449363 -0.5561704 -1.4237962 -0.22246815 0.24471498 -1.1123408 -0.31145543 0.7341449 -0.4671831 0.82313216
000080 e4 00 0f 0a 3c e2 14 07 ed 07 0a 10 0a 11 09 ef
       -0.62291086 0.0 0.33370224 0.22246815 1.334809 -0.6674045 0.4449363 0.15572771 -0.4226895 0.15572771 0.22246815 0.35594904 0.22246815 0.37819585 0.20022133 -0.37819585
000090 18 25 ff 0e 06 db f8 0b 20 11 20 08 1a 02 e3 f0
       0.53392357 0.82313216 -0.022246815 0.31145543 0.13348089 -0.82313216 -0.17797452 0.24471498 0.7118981 0.37819585 0.7118981 0.17797452 0.5784172 0.04449363 -0.64515764 -0.35594904
0000a0 f6 fc 03 fb 01 e0 fa ac 02 fb ef ea 13 c9 f6 fe
       -0.22246815 -0.08898726 0.066740446 -0.11123408 0.022246815 -0.7118981 -0.13348089 -1.8687325 0.04449363 -0.11123408 -0.37819585 -0.48942995 0.4226895 -1.2235749 -0.22246815 -0.04449363
0000b0 11 07 12 17 1e d3 25 19 ec fc f9 da 0b e3 1b 1c
       0.37819585 0.15572771 0.40044266 0.5116767 0.6674045 -1.0011067 0.82313216 0.5561704 -0.4449363 -0.08898726 -0.15572771 -0.845379 0.24471498 -0.64515764 0.600664 0.62291086
0000c0 0c 0a 00 f4 bf 18 e7 e0 fb 0c 13 e8 ed e7 1b f3
       0.26696178 0.22246815 0.0 -0.26696178 -1.446043 0.53392357 -0.5561704 -0.7118981 -0.11123408 0.26696178 0.4226895 -0.53392357 -0.4226895 -0.5561704 0.600664 -0.2892086
0000d0 18 0f ff 0b ff e8 e9 f9 25 fd ec fd bb 02 13 ec
       0.53392357 0.33370224 -0.022246815 0.24471498 -0.022246815 -0.53392357 -0.5116767 -0.15572771 0.82313216 -0.066740446 -0.4449363 -0.066740446 -1.5350302 0.04449363 0.4226895 -0.4449363
0000e0 eb d6 ce 0d 24 17 1c c2 ec 02 17 fb 09 f4 2a ee
       -0.4671831 -0.9343662 -1.1123408 0.2892086 0.8008853 0.5116767 0.62291086 -1.3793025 -0.4449363 0.04449363 0.5116767 -0.11123408 0.20022133 -0.26696178 0.9343662 -0.40044266
0000f0 b0 db 08 03 e4 12 0c be d9 c6 03 04 19 e5 f8 04
       -1.7797452 -0.82313216 0.17797452 0.066740446 -0.62291086 0.40044266 0.26696178 -1.4682899 -0.8676258 -1.2903153 0.066740446 0.08898726 0.5561704 -0.600664 -0.17797452 0.08898726

functional_5_1/dense_1/MatMul i1 [45, 54] scale=0.017663425 zero_point=0
000000 b8 01 f2 fd dd 25 06 f4 03 0b e9 09 22 00 02 e1
       -1.2717665 0.017663425 -0.24728794 -0.052990273 -0.61821985 0.6535467 0.105980545 -0.21196109 0.052990273 0.19429767 -0.40625876 0.15897082 0.60055643 0.0 0.03532685 -0.5475662
000010 f4 f4 f9 f9 24 10 18 d5 05 fb de 0b 0f 00 e2 08
       -0.21196109 -0.21196109 -0.12364397 -0.12364397 0.6358833 0.2826148 0.42392218 -0.75952727 0.088317126 -0.088317126 -0.60055643 0.19429767 0.26495138 0.0 -0.52990276 0.1413074
000020 05 f6 00 06 06 05 1e fc 22 11 fe f4 10 0b fa fb
       0.088317126 -0.17663425 0.0 0.105980545 0.105980545 0.088317126 0.52990276 -0.0706537 0.60055643 0.30027822 -0.03532685 -0.21196109 0.2826148 0.19429767 -0.105980545 -0.088317126
000030 04 14 07 05 01 17 c9 00 fb 1d fe 13 ea ef 07 bc
       0.0706537 0.3532685 0.12364397 0.088317126 0.017663425 0.40625876 -0.97148836 0.0 -0.088317126 0.51223934 -0.03532685 0.33560508 -0.38859534 -0.30027822 0.12364397 -1.2011129
000040 16 e7 ea e1 08 f6 06 fc f8 05 0f 14 0f 0f 13 ed
       0.38859534 -0.44158563 -0.38859534 -0.5475662 0.1413074 -0.17663425 0.105980545 -0.0706537 -0.1413074 0.088317126 0.26495138 0.3532685 0.26495138 0.26495138 0.33560508 -0.33560508
000050 06 fb 00 06 09 08 f8 fc 0e f8 00 ec 0d 0a 08 15
       0.105980545 -0.088317126 0.0 0.105980545 0.15897082 0.1413074 -0.1413074 -0.0706537 0.24728794 -0.1413074 0.0 -0.3532685 0.22962452 0.17663425 0.1413074 0.37093192
000060 0d 03 ef fa 05 f1 f7 22 18 0d fc 00 96 00 01 04
       0.22962452 0.052990273 -0.30027822 -0.105980545 0.088317126 -0.26495138 -0.15897082 0.60055643 0.42392218 0.22962452 -0.0706537 0.0 -1.872323 0.0 0.017663425 0.0706537
000070 f5 17 fb 0a f9 1a f6 31 de 06 00 ff 08 0f 00 f6
       -0.19429767 0.40625876 -0.088317126 0.17663425 -0.12364397 0.45924905 -0.17663425 0.86550784 -0.60055643 0.105980545 0.0 -0.017663425 0.1413074 0.26495138 0.0 -0.17663425
000080 fe f7 11 e5 fe f0 fd 0c 0e 04 03 f6 0b 05 f9 01
       -0.03532685 -0.15897082 0.30027822 -0.47691247 -0.03532685 -0.2826148 -0.052990273 0.21196109 0.24728794 0.0706537 0.052990273 -0.17663425 0.19429767 0.088317126 -0.12364397 0.017663425
000090 12 fd 0a fd fa f3 04 07 ff 07 fb f7 18 1d ff 22
       0.31794164 -0.052990273 0.17663425 -0.052990273 -0.105980545 -0.22962452 0.0706537 0.12364397 -0.017663425 0.12364397 -0.088317126 -0.15897082 0.42392218 0.51223934 -0.017663425 0.60055643
0000a0 06 fd c1 02 00 db f4 3c 05 f9 ee d7 11 22 06 ff
       0.105980545 -0.052990273 -1.1127957 0.03532685 0.0 -0.6535467 -0.21196109 1.0598055 0.088317126 -0.12364397 -0.31794164 -0.7242004 0.30027822 0.60055643 0.105980545 -0.017663425
0000b0 f7 ff f7 e1 e7 07 f0 09 ed f5 f5 0e 0b ec fd 04
       -0.15897082 -0.017663425 -0.15897082 -0.5475662 -0.44158563 0.12364397 -0.2826148 0.15897082 -0.33560508 -0.19429767 -0.19429767 0.24728794 0.19429767 -0.3532685 -0.052990273 0.0706537
0000c0 02 03 e1 ff f2 09 05 fd fa 04 0e 06 14 17 fe 0a
       0.03532685 0.052990273 -0.5475662 -0.017663425 -0.24728794 0.15897082 0.088317126 -0.052990273 -0.105980545 0.0706537 0.24728794 0.105980545 0.3532685 0.40625876 -0.03532685 0.17663425
0000d0 0d f2 00 1a 0a 01 f4 11 26 ff ef f2 0b 28 f9 e8
       0.22962452 -0.24728794 0.0 0.45924905 0.17663425 0.017663425 -0.21196109 0.30027822 0.67121017 -0.017663425 -0.30027822 -0.24728794 0.19429767 0.706537 -0.12364397 -0.42392218
0000e0 16 bf ee 11 f7 0f 0b f9 f2 07 0f 02 f4 f7 06 05
       0.38859534 -1.1481227 -0.31794164 0.30027822 -0.15897082 0.26495138 0.19429767 -0.12364397 -0.24728794 0.12364397 0.26495138 0.03532685 -0.21196109 -0.15897082 0.105980545 0.088317126
0000f0 07 1b 11 10 f7 05 ff 22 f8 17 ec 26 ff 1c f1 ec
       0.12364397 0.47691247 0.30027822 0.2826148 -0.15897082 0.088317126 -0.017663425 0.60055643 -0.1413074 0.40625876 -0.3532685 0.67121017 -0.017663425 0.4945759 -0.26495138 -0.3532685
